deploy/deploy_real/ckpt_asap/20250602_133458-MotionTracking_TStand-motion_tracking-g1_29dof_anneal_23dof/exported/model_3000.pt (torch, 836966 bytes, 8 tensors)

weight f4 [512, 75]
00000000: ac2f bcbb 6008 2dbd 3573 99bd 7f13 bf3d
00000010: e710 29bd 4246 86b9 323c 46bc 821e 933c
00000020: b827 883c 5f93 33be edff ce3c da0d 94bc
00000030: e464 523d c92d 65bd 5873 08bd d94e 7eba
00000040: 263e b43b 1229 a63c 7d6f 363d 4ff7 4fbc
00000050: 7ebc d8bc 3701 743c 6903 9e3c 667d a43d
00000060: 79d7 4fbe 5021 4a3d e231 dabd e23a d53d
00000070: 0468 d2bd ab2f 27be c7e5 dc3e 609f ad3d
00000080: ae7f 08be b8e0 7dbe 4a1c c03e 396b 903e
00000090: e8da d83b a825 59be 9fd5 983c d46f 21bd
000000a0: 8bd4 a0be cfa5 f13c 717e 40be 6962 343c
000000b0: 6df4 b4bd 99d6 6dbc c751 273e 36e2 a93d
000000c0: fdd6 82bc 3871 8cbf 6607 9dbe 7009 f03d
000000d0: aed9 8bbe 9da1 c4bd 1afb 8d3c fe89 e8be
000000e0: 748e 933c 1362 4e3d 334b 11bf a81b a9bd
000000f0: 585e cb3d 4443 743e 509c 4e3e e5b4 8c3e
00000100: 1fbc 2f3e 9724 303e da5f 993d 13b9 353d
00000110: 39f4 0ebe 02ae b43c 934e 64bd 2ae6 6bbd
00000120: 54e4 3dbe 2459 8abd 5122 cebc a9ca 0bbd
00000130: e3ee babd 3856 c43c 2d0f 943d 8c00 8ebc
00000140: 4848 07bc 7f82 b73b 9967 223d 986e 9d3c
00000150: 17a7 cfbd da7e 77bc e1bc a5bc c42f 8cbd
00000160: 125b 8ebd a69a 51bc 48be 743c 5550 773c
00000170: 7eee 1d3d 21b7 41bc 8bc4 e93b 184f 223c
00000180: e82e 203d 2ec9 893d 809c 0cbe 9ac4 173d
00000190: efb1 9abc 2187 b0be 2f1b a23e 0515 9dbe
000001a0: f0ef 99be 3b3c 71bd 78d5 7fbd b720 063f
000001b0: 1c35 7abe b3ee bc3d 2218 da3e 8803 b53e
000001c0: 76e4 94bb 9031 1c3f e2b3 05bf 3291 92be
000001d0: fde7 ffba 2698 cabc 5d6e 9ebd 6b9c a53d
000001e0: e6ba 363e 4b21 4abe e41e 1fbe 4238 2abe
000001f0: 4201 febe fe86 ed3e 32ca 333e 1731 cdbe
00000200: 3a4b 39bf b346 76bc 3467 223d e5fc 4f3c
00000210: 501c 6ebd 3772 f2bb 8e5e a8bd e604 d83c
00000220: 9955 5cbe 29c1 d0be 5981 b33e bec1 7e3e
00000230: 369b 93bc b00d bbbc 6440 223d 6c2c 39be
00000240: a587 df3d 97a8 323e 3bb3 0bbe ce39 913d
00000250: d695 fcbd 1031 1b3e 9caf ccbd d43d 9b3d
00000260: 2f75 e53d f8b3 17bd 8454 3cbe 72e4 a73c
00000270: 7024 c9bc 96f8 82bd d4aa 363c a5bd 433e
00000280: f869 783c 1e80 85bc 8380 9ebd 6544 283d
00000290: 3864 0e3e f49e 8e3c 0f4f 553d b048 e83d
000002a0: 8261 aa3d 60c5 dcbd 179b 2a3d bc40 a5bc
000002b0: a1e1 d4bd a7b1 aa3c 7121 563d dbb3 b43c
000002c0: c748 6d3e 8a37 da3d af13 143d dba7 a8be
000002d0: 5c7b 283f 5ffc b53d 8a96 d4be 8840 e53d
000002e0: 98dc 9dbe b6b2 53be 7f27 d23c e3ca 4c3e
000002f0: 6f59 c33e fc19 923d 3356 0bbe c52e c5be
00000300: 1fdc 2c3e 2af6 363c 6a65 80be 7140 803e
00000310: 211a 88bb d0cf 33be 88c5 c03d 20e8 a7bd
00000320: e0fa f5be f81d 203e 4bbe 02bd ddb3 f3bc
00000330: 0c3d 1c3c 4b6a 263e 9c4d 33be cfbc 743e
00000340: 1321 273e 1a82 99bd db16 3abe 9d86 44bd
00000350: 0e54 003f 5913 243e 1ddf 823d 4e09 813d
00000360: cbd6 b6bd 0296 52bc 8c31 95be d260 3f3e
00000370: 56b9 bd3d f169 fbbd 7ebb 9cbe 94bc 1c3e
00000380: 7769 d0bd 0956 43bd 7029 8f3c 5269 d7bb
00000390: 6ff5 c33d 2b85 19bd 35c4 e8bb 8b87 81b9
000003a0: a3e8 9abc 6bb5 b93c bf5f 24bd 2dfc 60bc
000003b0: 94a6 93bc a48f 9f3d 1072 c13c b8d9 e4bd
000003c0: 9a95 733c 310b df3c cfcb c53b 2137 ae3c
000003d0: de1d 83bd 10a7 993b 5b14 733b b8bb 4dbd
000003e0: 90e5 89be a589 f43d 9236 08bc 6124 65be
000003f0: d0a5 21bf bc74 343e 0e04 c7bc a660 37bf
-0.0057429876 -0.042244315 -0.07492677 0.093298905 -0.041275885 -0.00025610818 -0.012099313 0.017958883
0.016620502 -0.17536686 0.02526852 -0.018073011 0.051365748 -0.055951867 -0.033313125 -0.000970108
0.0055005727 0.020283256 0.044539917 -0.01269324 -0.026457068 0.014892868 0.019288735 0.0803173
-0.2029704 0.049348176 -0.10654046 0.10411622 -0.10273746 -0.16326778 0.43144056 0.08477664
-0.13329956 -0.24792755 0.37521583 0.28206804 0.0066178925 -0.21205771 0.01865655 -0.03941329
-0.31412157 0.029498009 -0.18798234 0.011009791 -0.08835683 -0.014516496 0.1633979 0.082950994
-0.015971655 -1.0972052 -0.30669707 0.1172055 -0.27314514 -0.09601138 0.017331649 -0.4541778
0.018012263 0.0503865 -0.5675537 -0.08257228 0.09930104 0.23853785 0.20176816 0.27481762
0.17161606 0.17201458 0.07488985 0.044365954 -0.13960351 0.02205563 -0.055738997 -0.05759255
-0.18544132 -0.067552835 -0.025162848 -0.03412882 -0.09127595 0.023966894 0.07229457 -0.017334245
-0.008256979 0.005600273 0.03964958 0.019217774 -0.10139292 -0.015105927 -0.020231666 -0.06845048
-0.06950964 -0.012793219 0.014937945 0.015094836 0.038557522 -0.0118234465 0.0071340255 0.009906553
0.039107233 0.06727825 -0.13731575 0.03705273 -0.018883673 -0.34478095 0.31661364 -0.306801
-0.3006587 -0.05889533 -0.06245944 0.5239367 -0.24434322 0.09225216 0.42596537 0.35354257
-0.004543836 0.61013126 -0.52227604 -0.286264 -0.0019524094 -0.024730753 -0.07735894 0.08086475
0.17844734 -0.19739263 -0.15539128 -0.16623023 -0.49610335 0.46392053 0.175576 -0.40076515
-0.7238041 -0.015031504 0.039649203 0.012694572 -0.05813247 -0.0073988694 -0.0822116 0.026369523
-0.21517028 -0.4077237 0.35059622 0.24878594 -0.018018346 -0.022833675 0.03961219 -0.18083352
0.10914544 0.17447124 -0.1364259 0.070911035 -0.123332664 0.15155435 -0.09994432 0.07580152
0.112039916 -0.037036866 -0.18391615 0.020494673 -0.024553508 -0.0639507 0.011149127 0.19115312
0.015161984 -0.016296443 -0.077393554 0.04108085 0.13905418 0.01740978 0.05207735 0.11341989
0.083193794 -0.10779834 0.04165181 -0.02017247 -0.10394598 0.020836664 0.052277986 0.022058418
0.23172294 0.106551245 0.036151584 -0.32940564 0.6581323 0.088860266 -0.41521102 0.11193949
-0.30832362 -0.20673642 0.025653599 0.1999927 0.3815417 0.071338624 -0.13607101 -0.38512245
0.16880845 0.0111670885 -0.25077373 0.25049165 -0.0041535054 -0.17559743 0.09412676 -0.08198571
-0.48042965 0.15636432 -0.03191976 -0.029748851 0.009536039 0.16251485 -0.17510074 0.2390015
0.1632121 -0.07495518 -0.18172781 -0.04797994 0.5012826 0.16023006 0.06390212 0.06300603
-0.08927687 -0.012853147 -0.29139364 0.18689278 0.09263866 -0.12276066 -0.30611795 0.15306312
-0.10176366 -0.04768947 0.017475814 -0.0065738345 0.09568297 -0.037480514 -0.007103468 -0.00024705785
-0.018909758 0.022669515 -0.040130373 -0.013731998 -0.018023767 0.07791069 0.02361396 -0.11174339
0.014867211 0.027227016 0.006036259 0.021266522 -0.06402181 0.004689105 0.003709099 -0.05022785
-0.26932955 0.11940316 -0.008313792 -0.22377159 -0.63143635 0.17622656 -0.024293926 -0.7163185

bias f4 [512]
00000000: 6e1f 193e d273 8b3d 3444 a23d aff0 45be
00000010: af92 1ebe 9bf8 c1bd 3fc0 2cbc 3508 bc3d
00000020: 7b39 cd3d af8a 0b3e 7bb8 1bbe a0ca c8bd
00000030: bb7c d33c 7d18 0e3e 7cf8 683e 07c8 42be
00000040: 6513 803e 090c d0bd 870f b9be 8601 36be
00000050: 633e 4fbe 2e94 1dbe f4e0 6a3e aca7 23b8
00000060: a74e 7dbc 7039 aebe d8dd f63d b203 b339
00000070: 966a 103e f520 2fbe aab1 7cbd 8ee2 02be
00000080: f2eb ad3d 8a39 0dbd 1f21 fabd 0899 2abd
00000090: 844e 41be f510 193e 1105 afbd 3dc4 5fbe
000000a0: df45 a33e 9815 2dbe c5a4 2d3e 29b6 19bd
000000b0: dfdd 83bb 3835 8cbe 3c89 f7bc c808 48bd
000000c0: 47a4 a3bd 8e8a 4a3d 971c a13d 9547 c23d
000000d0: 0e0b d5bd 3128 c23d f02e 23be 4753 99be
000000e0: 2fe1 4abc b8eb 2a3c 9e8c 1a3c c2ff 62be
000000f0: 7249 553e 1a69 8cbe 8c23 233d 7733 333e
00000100: 604c f1bd b6cf 5dbe 2daf 1a3e 714a 5c3e
00000110: cbdc 233d d52e cdbd 721e 223e 089c 7abd
00000120: 67b3 503e f1b4 b4bc 5dfc 84be 232e b9be
00000130: 83f3 793e eae6 5abe ae16 af3c cedf 063d
00000140: 077f 163e 8aef ebbd f5fc 443e cc54 1fbe
00000150: cbcf e1be 461f 81be 4efe 7cbe 8a60 ebbc
00000160: 5551 643d bdf8 283e 5400 33bd c587 593d
00000170: 83ae 88be e977 4bbe a076 5dbe c3b6 67be
00000180: 3e2e b1be 946b 283e f20e 403e 0e6c 9ebe
00000190: 6cff 67be 4f76 ca3d 781f 55bd 5b94 98be
000001a0: 002f 88be a4d1 3c3e ad2c 29bd cacf a4bd
000001b0: 9d91 2bbe 95e9 71be f751 d6bc 274a 83be
000001c0: 2821 593e 4842 5dbe cab1 f63d 6953 293e
000001d0: c5d7 023d 72df 07be 012e 9cbc 5496 4b3d
000001e0: 748c 5f3e 8125 e4be 2dcb 1e3d 6766 f03d
000001f0: 43f0 51bd 95c4 8abe fa45 373d ef1e 57bd
00000200: e604 c53d 419f 5bbe f130 6abe 1d4a ebbd
00000210: 39aa dcbd 0dc1 353e 8775 ccbd 8cfe 94be
00000220: e7cb 18be 8cf0 2f3e 1655 09bd e770 0f3e
00000230: 7022 6cbe 8be6 d93c 5545 e93d b7d1 85bd
00000240: e33c cabd 2b93 9abd eca2 00be e338 b6bd
00000250: 32a0 363e bc07 bc3d 043e 643e 3fb0 0dbe
00000260: 16e6 1bbe b404 013e 3d72 24be 3f14 79be
00000270: 70b0 18be fb86 7fbe dda5 4cbe bcde 243d
00000280: e00c b1bd 60f1 19bd bc70 963d cac0 65be
00000290: 0867 023e 1609 103d c006 a6bc d0a5 90bd
000002a0: fd1e 953d 554a 5e3c dbf5 a33d 9e7e 45be
000002b0: ad63 9fbe dee1 7b3d 0c3a 2fbd 86fb 493e
000002c0: 2b7d 0ebd 4127 46be 55e5 f83d 6a2f 283e
000002d0: 9369 df3d dc2d 9b3d 51f8 8bbe 2c18 383d
000002e0: a4b4 9a3c 8fdf 053e f18e 82be ade7 46be
000002f0: 4dd5 5e3d f583 4abe 16c1 76be add9 11be
00000300: 704e 4e3d b95b d9bd 87c3 a23d dd23 3ebe
00000310: 5fc1 78be 0a39 20be 28f2 bdbe fbe6 a13d
00000320: 9747 a1bd 159d 51be a85f f83d 060c 66be
00000330: f459 dcba 4d8a 243d fd82 e73d a8f1 33be
00000340: 9ce8 953d 803c b83e 68f5 7fbe 16ac 923e
00000350: 2076 cfbd 021e e6bc 043f bbbd 9ce7 83be
00000360: 24d7 7cbc 9510 8e3e fed6 c5bc 58ed 66bd
00000370: d86e c3be 99ad 10be c88c 713d a1c5 0abd
00000380: 88ed 6d3c 4cb5 1d3e b645 253e fa3e 94bd
00000390: 7eb7 193e 4114 a13d 3970 583d 39d8 023e
000003a0: 5541 fc3c 3281 08bd b4af 18bd fd81 46be
000003b0: f5de 01bc a041 07bd 17c2 82be 9177 8dbd
000003c0: cabe 8dbd d773 27be ccad 30be 9ff9 143e
000003d0: c06a 7fbe 445b 01be 13ad 95bd 4272 30be
000003e0: 2034 3bbe 0cc9 e9bb 365d 4bbe 29bd a8be
000003f0: 6e8a 2fbe 27f5 8f3c fb63 82bd 85ef efbb
0.14953396 0.068092 0.07923165 -0.19330095 -0.15485643 -0.09471246 -0.010543882 0.09181253
0.10020729 0.13627122 -0.15207092 -0.09804273 0.025816312 0.13876529 0.2275104 -0.19021617
0.25014797 -0.101585455 -0.3614466 -0.17774019 -0.20238642 -0.15388557 0.22937375 -3.9018385e-05
-0.015460647 -0.34028196 0.12054032 0.00034144294 0.1410316 -0.17102416 -0.06169287 -0.12781736
0.084922686 -0.0344787 -0.122133486 -0.04164985 -0.18877608 0.14947875 -0.08545888 -0.21852203
0.31889245 -0.16902769 0.16957386 -0.037527237 -0.004024252 -0.27384353 -0.030216806 -0.0488365
-0.07990318 0.049448542 0.07866781 0.094863094 -0.10402499 0.09480322 -0.15935874 -0.29946348
-0.0123827895 0.010432176 0.00943294 -0.22167876 0.20828798 -0.27423936 0.039828822 0.17500101
-0.117821455 -0.21661267 0.15105887 0.21512772 0.040005486 -0.10018698 0.15831926 -0.06118396
0.20380937 -0.022058936 -0.25973788 -0.36168012 0.24409299 -0.21377149 0.02137312 0.03292828
0.14696895 -0.11520298 0.1923712 -0.15559691 -0.44103846 -0.25219172 -0.24706385 -0.028732557
0.055741627 0.16501136 -0.043701485 0.053107996 -0.26695642 -0.19869961 -0.21627283 -0.22628312
-0.34605592 0.16447288 0.18755701 -0.30941814 -0.2265603 0.09885847 -0.052031964 -0.29800686
-0.26598358 0.18439347 -0.04130237 -0.08047445 -0.16754766 -0.2362426 -0.02616213 -0.2564251
0.21204054 -0.21607316 0.12045629 0.16535725 0.031944055 -0.13268831 -0.019064905 0.04970391
0.21830922 -0.44559863 0.038767982 0.11738282 -0.051254522 -0.27103105 0.04474447 -0.052519735
0.09620075 -0.2144747 -0.22870232 -0.11488745 -0.10774655 0.17749424 -0.09983354 -0.29100454
-0.14921533 0.17181605 -0.03352841 0.14007913 -0.23060012 0.02659919 0.11390177 -0.065341406
-0.098748945 -0.07547601 -0.1256215 -0.08897569 0.17834547 0.09181163 0.22289282 -0.13836764
-0.1522449 0.1259945 -0.16059203 -0.2432413 -0.14911056 -0.24953835 -0.19985147 0.04025148
-0.08645034 -0.03758371 0.07345721 -0.22436824 0.12734616 0.035164915 -0.02026689 -0.07062876
0.07281301 0.013567527 0.080058776 -0.19286582 -0.31130734 0.0614947 -0.042779967 0.19724855
-0.03478734 -0.19350912 0.121531166 0.16424337 0.109088086 0.07577106 -0.27337888 0.044944927
0.018884964 0.13073562 -0.2549968 -0.19424315 0.05440264 -0.197769 -0.24097094 -0.14243193
0.050367773 -0.10613198 0.0794745 -0.18568368 -0.24292515 -0.15646759 -0.37098813 0.07905384
-0.07874983 -0.20470078 0.1212762 -0.22465524 -0.0016811476 0.040170956 0.11304281 -0.17572653
0.07319757 0.35983658 -0.24995959 0.28646916 -0.101299524 -0.02809048 -0.09142879 -0.2576264
-0.015432153 0.27747026 -0.024150368 -0.056378692 -0.38170505 -0.14128722 0.05897215 -0.03387988
0.014521964 0.1540119 0.16139874 -0.07238574 0.15011403 0.07865191 0.0528414 0.12777795
0.030792871 -0.033326335 -0.03727694 -0.19385524 -0.007926692 -0.03302157 -0.25538704 -0.06907571
-0.06921156 -0.16352783 -0.17253798 0.14548348 -0.24943066 -0.12632471 -0.07308402 -0.17231086
-0.18281603 -0.0071345624 -0.19859776 -0.32956818 -0.1714265 0.017572952 -0.06366726 -0.007322254

weight f4 [256, 512]
00000000: 2747 623c 8114 ef3d 1fce 47bd 73e8 44bd
00000010: 317e d5bd 6197 4f3d 19ee 8fbd ba3b bf3d
00000020: 6e3d 793c 9264 f63d 2854 213d edd1 f6bb
00000030: 1ff5 523c abf2 873d 7f91 4f3d 53ca 4e3d
00000040: bb57 07be 7035 c9bc 38a8 bebd 0c1f 3dbe
00000050: 8f27 793d 33fd aa3d 1cab 8ebd 7c9f 8e3d
00000060: 523a 59be e744 393e d60b d8bd 6ed4 36bd
00000070: 3649 183d d15d d6bd aedb d1bc 596e 28bd
00000080: c3ea 9b3d d165 b43d aeb0 0ebb 235a 283a
00000090: 3b3b d2bd 737f 9abd af23 62bc 7b19 0dbe
000000a0: 3325 2bbd 7a37 b43d 6e25 043b 0116 03bc
000000b0: 9429 74bd e8f2 ac3d 3b2f 42be d45f b13d
000000c0: e4f5 9f3b ce1f ca3d 1ad7 a7bd 5cce 4d3e
000000d0: ee98 2dbc 0c18 ce3d edba 2dbd e0c1 6ebd
000000e0: 4db5 4c3d 1528 5f3e a7cb cabd 7991 dc3d
000000f0: f8f6 0bbc bca5 233d ae47 f3bd 8fcb 1b3c
00000100: 59d1 bdbd a98c d0bd a943 cd3a adc9 a8ba
00000110: c00b 0e3e 3520 96bd 2254 a53d a435 d43c
00000120: 1c7b 0d3e 2ef0 9c3d ce5e 87be 3b55 aabd
00000130: 2caa 383e d114 00be 211b 883d e932 0bbe
00000140: f466 443c f03f f8bc 94b1 cebc 745f 2abd
00000150: a0cf 4b3c a709 5f3c 5c48 0b3d 2021 403d
00000160: 025e 17bd 6c94 333c 061a c43d 64b1 3fbd
00000170: 7ddc 583d dd3f 6ebd b542 af3d 3d45 dcbd
00000180: 2347 2cbd e87c 84bd 4d5c 5f3d 670d c63c
00000190: 798b f7bb 276d c3bd fb1e 27bd 8789 003d
000001a0: 3f5f c53d 9e62 f73c 70f2 8d3c 4eae 12bc
000001b0: 4734 7a3c 7568 4e3d 5dd1 99bd 06a3 883d
000001c0: 294a debc 424f c7bc 5131 2fbd 6683 5b3b
000001d0: 7cbb 493e 463e 88bd 602f 19bd bfd9 4fbd
000001e0: ed6c e1bd e341 e4bc 3385 babc 84bc 173c
000001f0: 146b 4c3d 3152 aebc 36d5 3d3c 0d1b eb3d
00000200: fc5e a43c 1327 76bb 2b46 67bd 6502 2bbe
00000210: 228e 7a3b 65f1 42bd db16 153d 6a08 8dbd
00000220: 343b bc3d 852b ac3d cb4d 72be 0a36 7cbb
00000230: 32eb a8bd d587 bc3c 9b88 b73d abe1 2c3d
00000240: 6f29 753d a2fd 163c d158 c4ba 9f22 543d
00000250: 4903 49be f529 bcbb 1a82 aabc 6b64 c8bd
00000260: 2d4a aabd 046b 03bd 1b03 3ebe d4ac 453e
00000270: c274 2f3e c7e0 4bbe 9ec4 85bd abd1 a9bc
00000280: e573 8bbb 57df 5e3d ec6c fdbd 68a2 213e
00000290: e814 a1bd f4cb bbbc 854a 83bd d394 91bc
000002a0: c91e a43b 9032 1fbe 9d07 fc3c aa96 c03d
000002b0: 74f1 e93c 146b a8bd 46ba 6bbe 35ea 9e3d
000002c0: 619a 863d 5354 ae3d 8edc 5e3e e008 60bb
000002d0: 87d9 fc3c 1c7c a33c 75f7 1ebe ba5d 953d
000002e0: db22 d93d fbe9 873d ee2f c03d 48bd 7a3d
000002f0: d774 dfbc 974c dc3a 66f6 ecbd 08ef e2bd
00000300: bd65 fb3d ab74 573d 47b5 14bd 5b19 2aba
00000310: c39c a6ba c13f 94bd de82 81bd c7b6 d8bd
00000320: a80c e03d 1d27 e93c bfe2 e2bd 2b01 d53d
00000330: 5b1c 463e b476 2d3e 95e0 863d 98f6 ba3d
00000340: e387 f23c 408c 963d 8775 a93d 663e 823d
00000350: 715c dfbd d303 e63d b860 51bc 7874 2f3e
00000360: 4e7e 823d f6ee 223d ea18 4fbc c838 f1bd
00000370: 7e22 813d 2ef1 97bc 5ff8 01be 11e8 f13c
00000380: 5cd1 aebd 260b 0d3c 7fe3 263d 4998 ffbd
00000390: 4439 49bd 9acb 73ba 45ec 813d c226 1dbe
000003a0: 8c3b 083c 047b a8bd a3e4 2e3d 0da3 8dbd
000003b0: 3011 17be 52d4 ee3d 735e 4e3d 74d1 443d
000003c0: b406 3e3d 9fe4 143d 6462 093d 64e4 3f3c
000003d0: 1a8d c93c d8e7 403e 361c 5f3d 243f a83c
000003e0: bf9a 1a3d 0f95 8f3d 96a6 073c 017a 2fbd
000003f0: 4fc3 adbd 0f11 243d 24b2 fc3c df03 05be
0.013810909 0.11673833 -0.048780557 -0.048073243 -0.1042446 0.050681476 -0.070278354 0.09337564
0.0152124 0.12030901 0.0393869 -0.0075323493 0.012875824 0.06638082 0.050675865 0.05048592
-0.1321706 -0.024561614 -0.09309429 -0.18468875 0.06082874 0.08349075 -0.0696623 0.06964013
-0.21213654 0.1809269 -0.105491325 -0.044636182 0.037179194 -0.10467113 -0.025617447 -0.04112086
0.076131366 0.088084824 -0.002177279 0.0006422123 -0.102652036 -0.0754384 -0.013802453 -0.13779251
-0.041783523 0.08799644 0.0020163911 -0.008000852 -0.059609964 0.08444768 -0.1896333 0.08660856
0.0048816074 0.098693475 -0.08195324 0.20098251 -0.010595543 0.1006318 -0.042414594 -0.058290362
0.04997759 0.21792634 -0.09902125 0.10769934 -0.008542769 0.03995298 -0.11878906 0.009508981
-0.092684455 -0.10183079 0.0015660423 -0.0012877487 0.1387167 -0.07330362 0.08072688 0.025904484
0.13816494 0.07662998 -0.26439518 -0.08317038 0.18033665 -0.12507941 0.066457994 -0.1359364
0.011987437 -0.030303925 -0.02523116 -0.041594937 0.012439638 0.013613141 0.034004554 0.04690659
-0.036954887 0.0109606795 0.09575276 -0.046800032 0.05294465 -0.058166374 0.08557645 -0.10755394
-0.04206003 -0.064691365 0.054531384 0.024176313 -0.0075544682 -0.095423035 -0.04080103 0.031381156
0.096373074 0.030198392 0.017327517 -0.00895269 0.015271253 0.050392587 -0.07510636 0.06671719
-0.027134972 -0.024329785 -0.04277164 0.0033495068 0.19700426 -0.06652503 -0.037398696 -0.05074477
-0.11007104 -0.027863448 -0.022768592 0.009261254 0.049906805 -0.021279426 0.011586478 0.11479769
0.020064823 -0.003755991 -0.0564634 -0.16700132 0.003823169 -0.047593493 0.03639875 -0.068863705
0.091909796 0.08406738 -0.23662488 -0.0038484358 -0.08247985 0.023013989 0.08961602 0.0422074
0.059853967 0.009215744 -0.0014980083 0.05179083 -0.1963016 -0.0057423064 -0.02081399 -0.09784778
-0.08314929 -0.03208448 -0.18555872 0.1930421 0.17134383 -0.19909965 -0.065316424 -0.02072986
-0.004255759 0.054412212 -0.12374291 0.1578461 -0.07865316 -0.0229244 -0.06410698 -0.01777116
0.0050085527 -0.15546632 0.030765349 0.09403737 0.028557517 -0.082235485 -0.23020276 0.07759515
0.06572414 0.08512177 0.21763822 -0.0034184977 0.030865444 0.01995664 -0.15524085 0.072932675
0.10602351 0.06636425 0.09384142 0.06121567 -0.027277393 0.0016807494 -0.11570434 -0.11080748
0.122752644 0.052601498 -0.036305692 -0.00064887636 -0.0012711514 -0.072387226 -0.06323789 -0.10581737
0.10939914 0.028461033 -0.11078405 0.104006134 0.19346754 0.16939813 0.065858044 0.09129065
0.029605811 0.07350969 0.0827437 0.06359558 -0.10906304 0.11231198 -0.012779407 0.17134273
0.06371747 0.039778672 -0.012640217 -0.11778408 0.06305407 -0.01854762 -0.12692402 0.029529603
-0.08536026 0.008608615 0.0407443 -0.12480218 -0.04912688 -0.00093000534 0.06343893 -0.15346816
0.008314978 -0.08226588 0.042698514 -0.06915865 -0.1475265 0.11661591 0.050383043 0.048051313
0.04639311 0.036350843 0.0335411 0.011712167 0.024603415 0.18838441 0.054470263 0.02053792
0.037745234 0.070108525 0.008279463 -0.04284096 -0.08484518 0.04005533 0.030846663 -0.12989758

bias f4 [256]
00000000: 7956 42bd ea9d 16bd 8372 85bb 9bb5 efbd
00000010: 98f1 353c a7d2 063d f8fc 4bbc a28d b2bd
00000020: 6a01 c63d 12d4 cc3c 4eb2 c33d e2b7 3bbc
00000030: 7cdd 86be b0a4 613d 0832 2cbc 27de 19be
00000040: 7a51 41be afe0 27be 4840 e5bd 43cb 823b
00000050: 20cc a2bd c227 90be 498d 32bd 7fc7 803c
00000060: 39c8 0bbc c4a2 68be 1869 49be 3388 22be
00000070: 5471 f7bd 402a b6bd 1ce7 acbd 5afa 6f3d
00000080: 5afe dbbd 5c8e 5cbe 2e03 76be 0dde f7bd
00000090: 1903 9bbe c4d5 9ebd 620b 54be e90a 9fbc
000000a0: 6fef 01bd 1dd9 853d be13 84bd b759 6dbe
000000b0: ea13 a4bd 8e08 36be 40d5 963c 4011 87bd
000000c0: fc05 873c 3209 8dbd 3b1b 25be 66d8 67bd
000000d0: cc06 b6bd fab8 e6bd b919 ccbb 9bea bebd
000000e0: 8bff 9fbd 3a90 1fbe ca1d 17bd d0ac 2abc
000000f0: 12a6 7dbd 1cfa 9abd e87b 88ba a332 2cbc
00000100: 90b7 5abe a60d 0abe 702b 74bd b970 19be
00000110: 09fd b63b abd3 f5bd f088 00be b78d 023d
00000120: 4fde 4abd 8f7b 2fbd 04cc 3abe 8d67 efbc
00000130: 76ec 53be 4d6c 0ebe a520 edbd ac0e ee3c
00000140: 5aa2 453d 0d0a 5ebe f9ea a93b 1a2c db3c
00000150: 9983 cabb cbbb 0bbe 1d22 a8bd 13d0 1fbd
00000160: 85b9 e1bc ff9d d6bd 1d0e 9cbd 55e0 81be
00000170: 1a04 56be 255e 29bd a136 a0be 24a3 893d
00000180: de1d 96bd f67f 4c3d 7404 69be 2d9d a6bc
00000190: 0665 32be bd2f 95bd 0ba7 9abd 9968 cdbd
000001a0: 0c00 8bbd e008 2dbe e06a 9abd 2a84 b1bd
000001b0: 46db 3cbe 5391 eabc 5f86 a8bd 2f0a 06be
000001c0: 6a4d 8f3d cdeb 4fbe 6c01 04be 3b53 d3bd
000001d0: b2fd 723a 94ac 80be 8b5a 63be d052 4fbe
000001e0: da44 e53d 43d9 27bd 1b3d d33d 6479 c0bd
000001f0: 1591 55bd 875b 37bd cdf5 fbbc 3250 74be
00000200: f1d9 de3d 4846 b4bd ceae 98be 99ca febd
00000210: a5c7 e6bd 6779 b5bd f569 0bbe 88c0 95bc
00000220: 3543 b2bd d542 8dbe 65c7 55be 3450 0bbd
00000230: 270d 48bb 0c2b 3fbe 9ec3 833c a58f 0ebd
00000240: b6c4 57be 2cc2 303c cacf cbbd 1615 bdbd
00000250: 5639 ebbd 7707 e4bc 1e7e 78bd 070f 08be
00000260: b5e7 3cbd 1ed1 2bbd fda3 ee3c 1575 b3bd
00000270: 2f00 43be cd32 90bd 8df4 03be 9e6e 75be
00000280: fb5c 12bd f28e 5cbd 265f 4fbc f27b 2cbe
00000290: d502 3abd 1d6c 923d 890d eebc aabf 52be
000002a0: 7120 2c3d 2812 03be 7fce 82be 13ea 423d
000002b0: c883 733d 2891 1bbe f765 7cbd 8b95 b43d
000002c0: abcc 82be fdbc 8d3d f904 fbbd 0e94 8fbc
000002d0: 85e3 b0bd c656 12bb 8989 f3bd 5c1d c13d
000002e0: 4115 50be e7df 57bc 2997 003d 1387 f1bd
000002f0: 6113 60bd e967 0abd 4166 bcbd f9cb 0abe
00000300: b02b b1be 0cec 1ebe 343e 0fbe e47a 04be
00000310: 4174 de3c 3319 aa3c 974d 21be 922f f6bd
00000320: be50 3cbe 108f 34be ed8f 073e 512f a9bd
00000330: ad80 d8bd 2bc5 2dbe f5c3 b2bd d3da f9bd
00000340: 884c b6be d90f 4abe b46b 8f3d 174a 8cbe
00000350: ecf0 27bd 19ae 88bd d4cd d4bd fd5b 73bb
00000360: 8681 f4bd 760e b2bd 10eb 5abc fcac 8dbe
00000370: c70b 3dbd 05db 9dba 000e 9c3c a726 17be
00000380: af48 6bbe d0d8 fdbd 5f1d 01bc 299f 85be
00000390: 7038 95bd 8c89 2cbe 6486 09bd 4d83 71be
000003a0: fc37 19be 730b 46bd af9f e5bd a772 c2bd
000003b0: d578 5dbe 1287 e7bd 100b 9bbd b7a4 c9bd
000003c0: 1898 a8b9 6266 99bd 27a7 8fbd cf7b c0bd
000003d0: 730b 14bc 0341 88be beed 113e 9b59 4ebd
000003e0: 6285 7e3b 6ad8 11be f82d 20bd 83d1 77be
000003f0: f8ac 45bc 978f 0ebe 2441 a9bd 3ff2 56be
-0.047445748 -0.036771692 -0.0040724888 -0.1170456 0.011104964 0.032915737 -0.012450449 -0.087184206
0.096682385 0.025003467 0.09555493 -0.011457415 -0.26340854 0.0550887 -0.010509975 -0.1502615
-0.18878737 -0.16394304 -0.11193901 0.003991516 -0.0794909 -0.28155333 -0.04359177 0.015720127
-0.0085316235 -0.2271834 -0.19668996 -0.15872268 -0.120821625 -0.08894777 -0.08442518 0.058588363
-0.10741873 -0.21538681 -0.2402465 -0.121029 -0.302758 -0.07755616 -0.20707467 -0.019414382
-0.031722482 0.06535552 -0.06449078 -0.23178755 -0.08011611 -0.17776701 0.018412232 -0.06595087
0.016482346 -0.068865195 -0.16123669 -0.056602858 -0.08888015 -0.1126575 -0.0062286523 -0.09322091
-0.07812413 -0.15582362 -0.036893643 -0.010417178 -0.061925955 -0.07567236 -0.0010412904 -0.01051012
-0.21359086 -0.13481769 -0.059611738 -0.14984407 0.0055843634 -0.12003263 -0.12552238 0.03187343
-0.049528416 -0.042842444 -0.18241888 -0.029224182 -0.20695671 -0.13908501 -0.11578492 0.02905973
0.048250534 -0.21683522 0.0051854816 0.026754428 -0.0061802384 -0.13645856 -0.082096316 -0.039016794
-0.027554283 -0.10479354 -0.076198794 -0.25366464 -0.20900002 -0.04134955 -0.3129168 0.0672057
-0.073299155 0.04992672 -0.22755605 -0.02033862 -0.1742135 -0.07284496 -0.07551392 -0.10029716
-0.06787118 -0.16897917 -0.07539916 -0.086677864 -0.18443021 -0.02863375 -0.08228754 -0.13089822
0.069971874 -0.20304795 -0.12891167 -0.10318609 0.0009269371 -0.25131667 -0.22202508 -0.20246434
0.11194773 -0.04097868 0.10314389 -0.093981534 -0.052140314 -0.04476502 -0.030756855 -0.23858717
0.10881413 -0.088024676 -0.29820865 -0.12440986 -0.11268548 -0.08861046 -0.13614638 -0.018280283
-0.08704225 -0.2759005 -0.20876844 -0.034012035 -0.0030525418 -0.18668765 0.016084488 -0.03480496
-0.21071133 0.010788482 -0.09951742 -0.092325374 -0.11485545 -0.02783559 -0.06066715 -0.13286982
-0.04611941 -0.041947477 0.02913093 -0.08762566 -0.19043039 -0.070409395 -0.12886257 -0.23967978
-0.035733204 -0.05384726 -0.0126569625 -0.16844156 -0.045412857 0.07149527 -0.029059188 -0.20580927
0.042023126 -0.12799895 -0.2554817 0.04758651 0.05945185 -0.15192091 -0.06162068 0.088175856
-0.25546774 0.06920812 -0.12256808 -0.017526653 -0.08637146 -0.0022329553 -0.11891467 0.09429428
-0.20320608 -0.013175941 0.031394158 -0.117933415 -0.05470598 -0.033790503 -0.09199191 -0.13554372
-0.34603643 -0.15519732 -0.13988572 -0.12937504 0.027155044 0.020763969 -0.15752254 -0.12020792
-0.18390176 -0.17632699 0.13238497 -0.08260978 -0.10571418 -0.16969745 -0.08728782 -0.121999405
-0.35605264 -0.19732608 0.070029646 -0.27400276 -0.041001245 -0.066738315 -0.10390821 -0.0037133687
-0.11938767 -0.086941645 -0.013361707 -0.2767104 -0.04615381 -0.0012043422 0.019049644 -0.14760838
-0.22976945 -0.12394869 -0.007880538 -0.26097992 -0.07286155 -0.16849345 -0.03357543 -0.23585244
-0.14962763 -0.048350763 -0.11212098 -0.094945244 -0.21628125 -0.113050595 -0.075704694 -0.0984587
-0.00032156776 -0.07490231 -0.07014304 -0.093986146 -0.009035933 -0.266121 0.14250848 -0.050378423
0.0038836827 -0.14242712 -0.03910634 -0.24201016 -0.012065165 -0.13921963 -0.08264378 -0.20990847

weight f4 [128, 256]
00000000: f81e 0d3d 8588 203e dda4 99bd 9590 023e
00000010: 730e 72bc 957d db3d 070e 0fbe 4dc6 f3bb
00000020: 3203 77bd bd8c 903d 5624 c93d 6ec4 3cbe
00000030: db92 153d b844 fa3d a55b febc fbfd 03bd
00000040: 018d 88be f8c4 8c3d 1946 1fbe 5403 df3c
00000050: 5405 f9be c936 28bd ffc4 63bd 95f3 0fbe
00000060: 446c a2bc 7f9f 033e 9a6a f0bc 3b84 d23d
00000070: ecde 10bd de5f f43d 1aaf f4bd 3f78 53bd
00000080: bf47 66bc a5a8 153d b446 103e 3675 c43d
00000090: 031f 333e 9be3 093e 02c9 89bb a332 833d
000000a0: 50da 7d3d eed4 d1bd 6d43 1fbe ab3a 56bd
000000b0: 4851 d23c de9a de3d 4745 afba 2e84 f83d
000000c0: e71b 2bbe b6ac 6cbb 8aad bbbd 8be0 39be
000000d0: 7aa1 26bd f5ac 143d c397 473e 1336 31bb
000000e0: 33f7 03be f271 29be 7d09 babd 1949 0abd
000000f0: 49d6 b13c fe07 4fbe fb97 90bc 2e51 e3be
00000100: adb5 ddbd 6c05 8cbc 0fb4 db3d cfaf bb3d
00000110: 25a1 22be 43c3 da3d 4c54 00bb 01d6 f7bd
00000120: 2d13 72bd 404d 4ebd 7cff dcbc 456b 8ebd
00000130: 98ba 513e 9a37 6d3c 6115 d83d a4f4 80be
00000140: e332 42be ed88 26be 795f 83bd 3b60 debd
00000150: 4c72 18be 5142 33be 58d1 303d ffc4 71be
00000160: 0c84 8f3d 18c9 e93d 3c1f 30bc 87e9 893d
00000170: 22b0 0d3e 2c6b 16bd 6244 2a3e da1b b0bc
00000180: 0288 4cbe 8c7e 28be d9bf 423e 9f7e c13b
00000190: 7f3a 163c d564 44be bc53 43bd 1324 3a3d
000001a0: 9f26 d0ba 4ddd cb3c 8ea3 273c 015a a9be
000001b0: e978 623e eb70 18be 7c97 2e3d f102 603d
000001c0: d106 533d 52e5 773e 3d5a 1ebd 7250 27be
000001d0: 1f96 93bc 5ea6 e23d bf37 33bd 0ff0 e9bd
000001e0: 9aeb 64bd 137c 2dbd 549a 8bbe 1d46 133e
000001f0: 901c a03c 7be7 f33d a17a 3f3d d2d2 c8bd
00000200: 6c28 94be 86a0 d03b 6aa2 c83d 1fbf 893b
00000210: eaf8 df3d 2cc5 acbd 1d32 97bd bac1 1ebd
00000220: 03c1 633d c657 6f3e b28d 833d 2852 22be
00000230: eb9f 063d a690 79bd 332e 05be 99bc 19be
00000240: c86e 263d 6933 7dbd 299c d23d db3a 343d
00000250: 4b58 d53d d4d1 a9bb 9a4a 883d ccf5 c9bb
00000260: 3ac8 103e fc4e 86bd 8641 84be 480e bc3c
00000270: a026 32bd 2265 90bd a0be c13d 3d0e cdbd
00000280: 340b 923d 0cb0 ac3d 2d8d 4fbd 1a12 de3d
00000290: 249e 26be 5d53 df3c 251b 3fbe 2549 47be
000002a0: 3609 d5be c614 07bd 71b2 763c bb73 0e3e
000002b0: 7411 fdbd 42d5 fabc 5971 a8bc 714e 4c3d
000002c0: 83c8 203e c624 0e3d 13c3 1f3e 9a93 71bd
000002d0: d804 b43d 4863 1cbe a07c dabe 5be8 31be
000002e0: f0b4 1c3e 11ac 67bd 2616 83be 33d2 503c
000002f0: 3125 8abb 5a38 2ebd dce2 a63d 8e59 05bd
00000300: b765 a1bc ad2e d1bd 3178 443e 8072 c1bc
00000310: 309d 06bd e69d dabb d096 d53d 6492 96be
00000320: b19b ab3d 25be 613d 4374 f93d cb24 233d
00000330: defd 13bc 3aa8 4cbd f8ed 133d f254 bd3d
00000340: f34f 793e f89d 3ebc 68ed a53d b418 6a3d
00000350: d517 78be d40f 1cbd f62a b63d 12f3 c4be
00000360: 6a4c f03d a78e 443e f848 cebd fbde 383e
00000370: 3a23 a63a e4ed d9bd 014c 8dbc f7e3 2a3c
00000380: 7e2f 5ebd 1b81 ea3d 603f af3c f9c9 ac3d
00000390: 0d48 98bc e88a 20be 23ef e53d f419 b73d
000003a0: 1bdb 143e 5947 523d 2d2f 913d c5c3 223c
000003b0: aea9 133e fd07 48bd 03f4 0d3d b1bb 083e
000003c0: fd12 2a3d ca2d 8d3c d141 a0bd 4698 5abc
000003d0: b386 0cbf d3ef 493d 7a4c 97bb dca2 4a3d
000003e0: 18fa 3bbd 20e8 02be 36e2 1b3d 92de ec3d
000003f0: cb93 4a3c f2e8 053c 8c7f b43d 7db1 633d
0.034453362 0.15677078 -0.07502148 0.12750466 -0.014773953 0.10717312 -0.13970195 -0.007439411
-0.06030578 0.07058094 0.09821384 -0.18434307 0.036517005 0.12220138 -0.031049559 -0.032224637
-0.26670077 0.06873506 -0.15554084 0.027223267 -0.48636878 -0.041067872 -0.055607792 -0.14057763
-0.019827016 0.12853812 -0.029347707 0.10279127 -0.035368845 0.11932348 -0.119474605 -0.051628347
-0.014055192 0.036537785 0.14089471 0.09592669 0.17492299 0.13465731 -0.00420487 0.064061426
0.061975777 -0.10245691 -0.15553065 -0.052302044 0.025673524 0.10869382 -0.0013372087 0.12134586
-0.16709863 -0.0036113686 -0.09163959 -0.18152063 -0.04068134 0.036297757 0.19491486 -0.0027040287
-0.12887268 -0.16547373 -0.09083841 -0.033761118 0.021708624 -0.20217893 -0.017650595 -0.44397873
-0.108256675 -0.01709243 0.10727703 0.09164392 -0.15881784 0.106817745 -0.0019581495 -0.12101365
-0.05910032 -0.05036664 -0.026977293 -0.06954054 0.20481336 0.0144785885 0.10550953 -0.25186646
-0.18964724 -0.1626317 -0.06414694 -0.10858198 -0.14887351 -0.17505766 0.043168396 -0.23610304
0.07007608 0.11415309 -0.010749634 0.06733995 0.1383672 -0.0367233 0.16627648 -0.021497656
-0.19973758 -0.16454524 0.19018497 0.005904987 0.00916922 -0.1917909 -0.047687277 0.04544456
-0.0015880651 0.024885798 0.010231866 -0.3307648 0.22116436 -0.14886825 0.042624936 0.054690305
0.051520173 0.24208573 -0.038660277 -0.16339281 -0.01801592 0.11066888 -0.043754335 -0.11422741
-0.05588875 -0.042354655 -0.2726618 0.14382215 0.01954487 0.11909386 0.046747807 -0.09805836
-0.2893709 0.006366792 0.09796603 0.0042036916 0.109361485 -0.08436045 -0.07382605 -0.03875897
0.055603992 0.23373327 0.064235106 -0.15851653 0.032867353 -0.060928963 -0.13005905 -0.1501335
0.040632993 -0.061816607 0.102836914 0.04400144 0.10417231 -0.005182484 0.06654854 -0.0061633345
0.1413888 -0.06558034 -0.2583124 0.022956029 -0.043493867 -0.070505396 0.09460187 -0.10012481
0.07131043 0.08432016 -0.050671745 0.10843296 -0.16271263 0.02726143 -0.18662699 -0.19461496
-0.4160859 -0.032978795 0.015057192 0.13911335 -0.123568445 -0.030619267 -0.02056186 0.049879495
0.15701489 0.03470304 0.15601759 -0.058978654 0.08789986 -0.15272248 -0.42673206 -0.17373793
0.15303397 -0.05656058 -0.25602835 0.012745428 -0.0042158593 -0.04253421 0.08148739 -0.03255611
-0.019701822 -0.10213981 0.19186474 -0.023614168 -0.03286475 -0.006671655 0.10429156 -0.29408562
0.08379305 0.055112977 0.12180378 0.03983001 -0.009032695 -0.04996512 0.036115617 0.09244718
0.24346904 -0.011634342 0.08101922 0.057152465 -0.24227841 -0.038101032 0.08894913 -0.38466698
0.11733325 0.19195043 -0.100725114 0.1805381 0.0012675293 -0.10641077 -0.017248156 0.010430328
-0.05424451 0.11450406 0.021392524 0.08436961 -0.018589044 -0.15677989 0.11227252 0.08940497
0.14536707 0.051337574 0.07089076 0.00993437 0.14420196 -0.048835743 0.034656536 0.13352849
0.041522015 0.017233748 -0.078250535 -0.013341969 -0.54893035 0.04930098 -0.004617271 0.04947172
-0.045892805 -0.12783861 0.03805753 0.115658894 0.012364338 0.008173214 0.0881339 0.055589188

bias f4 [128]
00000000: e791 5fbe e251 e0bb e765 0fbd 9859 0e3d
00000010: 7288 14be 58cb b6bd 6c27 e0bc 2e55 a9bd
00000020: 74e6 673c 1e45 083d ac21 63bd 2e8f 5bbd
00000030: 8d5b a43b 8405 5dbe c52a 6bbd 8a67 efbd
00000040: 2b73 c5bc 9ac8 62be 487b 16be 7c95 13bd
00000050: 7bf4 f2bc 0d32 56bd 727d abbd b908 06be
00000060: ec21 09be cfdb efbd 7d19 053e a88b 90bc
00000070: 6d21 43bd cdf7 afbd 6fd0 f6bd 2850 c83c
00000080: 2b80 00bd f2a5 7dbe 1654 adbb d81b afbc
00000090: 31e5 44bd fa1f 19be 9467 cc3b c212 d0bc
000000a0: 3c59 903b 22be 3ebe 8163 01bd 4958 fcbb
000000b0: 7b21 8a3c 2093 26be 4b30 04be dc52 6ebe
000000c0: 614e 04bd 426e acbd b80e 05be af4c f8bd
000000d0: da7f c4bd 1ccd 94bd fbe1 e1bc 2809 bdbd
000000e0: c1a4 763d a894 f73d 386b b7bd 50bb 5fbe
000000f0: 5b51 47bd 66dd a4bd 8800 e1bd 96a9 8ebd
00000100: a0fc 42bc 8391 0bbe be2f 4ebd 8f71 41bc
00000110: 6a23 29bd e51a 9f3d 26da 99be 93b4 cbbd
00000120: 4b84 96bd 25a5 b4bd 79ae 11be 6c23 bcbc
00000130: 6aa0 6bbe 3309 54be 095d edbd 1506 87bd
00000140: 2d6d 13be 2320 2aba 7705 54bd a207 ffbc
00000150: 6d2c dabd 4348 ecbd 3715 8cbd f80b 25be
00000160: b956 80be 591f b4bd 2feb fbbd e2e0 41be
00000170: 6c05 02bd 019f 72bd 65ae a2bd 2988 2ebe
00000180: cfb5 a83c 67eb a7bc ed68 d3bc d778 c53d
00000190: 1eeb 01bd 85c7 62be 6d0e 91bc 58e3 95bd
000001a0: 9c0f 78bd c0f4 0bbe afb8 813b e4fb c4bd
000001b0: 2056 e3bd 4218 edbd 3118 98bd 5ca0 36be
000001c0: c615 833d 7081 3dbe 7bdc 4fbc 3eac 11be
000001d0: 3742 afbc fc6e 55bd ad3f a0bd eb9f 07be
000001e0: 7c90 603b bf29 33bd 3359 ebbc 24b6 1bbe
000001f0: 927e 9bbe 2bb0 0e3d 0dae 75be 5f24 5fbd
-0.21833001 -0.0068456987 -0.03500929 0.034753412 -0.14505175 -0.089255035 -0.027362548 -0.082682
0.014154065 0.03326904 -0.055452034 -0.053603344 0.0050157965 -0.21584135 -0.057413835 -0.116896704
-0.024102768 -0.22146836 -0.14695466 -0.03603123 -0.029657593 -0.052293826 -0.08373536 -0.13089265
-0.13391846 -0.11711847 0.12998004 -0.017644718 -0.0476393 -0.08592186 -0.12051474 0.024452284
-0.03137223 -0.24770334 -0.005289565 -0.021375582 -0.048070136 -0.14953604 0.0062379334 -0.02539957
0.004405169 -0.18627217 -0.031589035 -0.007700954 0.016861668 -0.16267061 -0.12909047 -0.23273796
-0.03230131 -0.084194675 -0.12993896 -0.12124001 -0.09594698 -0.07265684 -0.027573576 -0.09230262
0.060215715 0.12088901 -0.08955997 -0.21848798 -0.04866157 -0.08050041 -0.109864295 -0.0696594
-0.011901051 -0.13629727 -0.0503385 -0.01180686 -0.04129354 0.077688016 -0.30049247 -0.09946551
-0.07349452 -0.08820561 -0.14226712 -0.02296611 -0.23010412 -0.20706634 -0.11590011 -0.06592957
-0.14397116 -0.0006489774 -0.051763024 -0.03113157 -0.10653005 -0.1153722 -0.06839984 -0.16117847
-0.25066164 -0.087950416 -0.12300717 -0.18933442 -0.031743452 -0.05923367 -0.07943419 -0.17044128
0.020594506 -0.02049799 -0.025806868 0.09642189 -0.031718366 -0.22146423 -0.017707074 -0.07318753
-0.06056176 -0.13667583 0.0039587836 -0.09618357 -0.111004114 -0.115768924 -0.07426489 -0.1783461
0.06400637 -0.18506408 -0.012686844 -0.14225861 -0.021393878 -0.052107796 -0.07824645 -0.13244598
0.0034265807 -0.043740984 -0.028729057 -0.152062 -0.30370003 0.034835976 -0.23992176 -0.054478046

weight f4 [23, 128]
00000000: ceb0 c03d 5ee1 d63c cc7c 993d 1e9a 923c
00000010: ec1a ccbc dc5e 16bd 3232 efbb f018 e3bc
00000020: e414 36bd c274 58bd 9863 b6bc 7b6e 753c
00000030: 4602 22bd 3410 8a3d e2b8 a8bd e987 84bc
00000040: acc9 a2bd 33b2 953d 430a 323b 2de6 413c
00000050: 35f4 d9bc f51b 923c 13c8 74bc cab5 80bd
00000060: f0c1 05bc cc35 6a3c 86e9 48bd 68c3 d3bc
00000070: 7f42 3a3d 76a0 583d 6042 a3bc 525b 0d3b
00000080: 3fbc 883c d1ab 28be 0652 f13c c957 5bbd
00000090: 49cb c2bc 9164 2abb 4a11 2e3d b2f2 6e3c
000000a0: 8ff7 cbbc 3948 603d ddb3 e5bc 7ee6 1fbd
000000b0: 1ff4 c5bb 5181 a5bc dd4a 8a3c 1599 c63c
000000c0: 0ca4 aebc 6ddf 25bd 4253 9b3c 458a 31bd
000000d0: 0789 5dbd fe35 f93c 9a11 503d 873e d53c
000000e0: 60e5 b4bc 4116 3abd de32 983d b5b8 a83d
000000f0: 6d53 093d dd88 c5bd 23a5 a23c 5ca6 3e3d
00000100: 9e5b 33bd 9303 5c3d d47e 04be bc63 ed3c
00000110: 0dda dcbc 0474 893a 2491 843d ab96 41bb
00000120: c883 c8bd 8d90 1a3c 203b 753c c9ca a6bd
00000130: 1a54 353d 907a e13d 6428 4bbd 9267 a73c
00000140: b4e9 89bd 0151 5abd 703d 2a3c d7fe ad3c
00000150: e9e3 39bd 9b2f 153d 91f3 0d3d 06b7 643c
00000160: c355 363e afff b03d 4ebd ec3c 94ca 143c
00000170: c186 49bd 84fe 993c 623a a53d 0e4a 673d
00000180: a6ec 4cbd c1a9 aebc ae1c 8cbc e5bb 46bd
00000190: 4a1e 853c 1881 ef3c 0d0f 0dbd 8742 4039
000001a0: 85b0 a83c 208b 033c 9920 85bc b155 023d
000001b0: 29c0 583c 57c3 1d3c 7cdf 58bd 0b60 133d
000001c0: 9d47 6b3d d585 de3d 03ef 3fbc c637 01bb
000001d0: 0597 593d 37c6 433d 4a46 d63c 8957 b9bd
000001e0: 2983 1b3d 2127 25bd ee00 9dbd 214c a93c
000001f0: 1a48 18bd 5e1b 8cbd 1232 133d 1697 bebd
00000200: 94e1 ce3d 21c0 5e3c 2898 853c c43e b83c
00000210: 570c 87bc 626c e7bc c45c 3f3d 92f6 303d
00000220: 7cac babc ef71 23bd a5f0 fe3c f49d 473d
00000230: 7a57 f43b adab eabd 7fa0 1a3d ab97 1c3a
00000240: 7e00 0b3e fb1b 2bbd a158 333d be79 b8bb
00000250: ce45 44bd 923b e0bc 0a36 193d edce d5bb
00000260: 3aed ec3c a85e f8bb 55a4 d7bc 02ba 86bc
00000270: 9438 ae3c 11fe c03d 9933 693d dc8a 54bc
00000280: c9fd b6bc 1e1c 923c 68b4 9b3c 33da aa3c
00000290: 3860 253d 49b6 29bd fd2d 813c 190c 05bd
000002a0: 0eef 93bc 1c9c 353d 6eaa 4a3c e9d9 2ebc
000002b0: 793c bbbc 583a b0bd 7a87 44bc ae3c 693c
000002c0: ed3d f6bc 6cf2 23bc da28 503c 08d4 86bd
000002d0: cfd2 f33c b886 ecbc 8446 d3bc 2c4e b43b
000002e0: 2f89 3d3d 845d 883b 2916 00bb 8bdb 15bd
000002f0: d343 cf3a 9e37 6f3c b49d 23bd 766f 41bd
00000300: d775 8b3d 48ef 43bd 17bb c1bc b443 dfba
00000310: cf21 513d 93f2 903d 3348 0bbd 37b3 1abd
00000320: 9707 023d 1170 cd3c 3f25 5d3c 50b2 96bd
00000330: 5e8f d1bc ae86 f3bb 4245 d33d 57f7 6bba
00000340: 3b47 db3c b8f8 3e3c d14a ed3c abc2 a9bc
00000350: cbab a8bb 4cc9 f5bc 70cf 64bc e4ab 81bd
00000360: 4860 84bd 44ed 80bd 0853 173c edc5 a53b
00000370: 98eb 9a3b f82a 223c bfa0 9e3d f915 fd3c
00000380: 6cb9 f23c d5c3 bcbc aacb f03c be0a 44bc
00000390: eeaf 3a3d 5a1e 81bd b926 a23c db1f 143c
000003a0: 8c3c c03c cb20 ca3c 89e6 edbd 6f85 073d
000003b0: 1b80 babc c3ec db3b 8555 4f3d adc2 d6bc
000003c0: 30dc ba3c 227d 4ebb afb0 3f3d 3fe8 543d
000003d0: 8133 f63c 6f1b 4fbc 8324 533c d22c 46bd
000003e0: a789 59bd b66e 4abd c90b f0bc ced6 06bd
000003f0: 6d86 8fbd 1256 a3bc 1b87 f6bc d151 a63d
0.09408723 0.02623051 0.07494506 0.017895754 -0.024915181 -0.03671156 -0.007299685 -0.027721852
-0.044453517 -0.052845724 -0.022264287 0.014979954 -0.03955295 0.06741372 -0.082383886 -0.016178088
-0.07948622 0.073093794 0.002716676 0.011834663 -0.026605705 0.017835597 -0.01494028 -0.062846735
-0.008163914 0.014295053 -0.04905083 -0.025850013 0.045473572 0.052887402 -0.019929111 0.0021569324
0.016691325 -0.16471793 0.029458057 -0.053550515 -0.023778575 -0.0025999884 0.042496957 0.01458423
-0.024898319 0.054756377 -0.028039867 -0.039038174 -0.0060410644 -0.020203264 0.0168814 0.024242917
-0.021318458 -0.04049628 0.018960599 -0.043344755 -0.054085758 0.030421253 0.050798036 0.026030792
-0.02208203 -0.04543138 0.07431577 0.08238355 0.033526827 -0.09645245 0.019854134 0.04654537
-0.043788545 0.053714346 -0.12939006 0.028978221 -0.026959443 0.0010486846 0.06472996 -0.0029539268
-0.0979076 0.009433878 0.01496771 -0.08144147 0.04426966 0.11009705 -0.049599066 0.020435128
-0.067340285 -0.053299908 0.010390624 0.021239681 -0.045383368 0.036422353 0.03465611 0.013959652
0.17806153 0.08642518 0.028898861 0.0090815015 -0.049200777 0.01879812 0.08067776 0.05646711
-0.050030373 -0.02132118 -0.01710352 -0.048519034 0.016249795 0.029236361 -0.03443818 0.0001833533
0.020591984 0.008028775 -0.016250895 0.031820003 0.013229408 0.009629092 -0.052947506 0.035980266
0.057441343 0.1086537 -0.0117147 -0.0019717081 0.05312254 0.047796454 0.026156563 -0.09049899
0.03796688 -0.04032052 -0.07666193 0.020666184 -0.037178136 -0.068411574 0.035936423 -0.09306161
0.10101619 0.013595612 0.016307905 0.022490866 -0.016485376 -0.028249923 0.046719328 0.043203898
-0.022787325 -0.039903577 0.031120608 0.04873462 0.007456717 -0.11458526 0.037750717 0.0005973528
0.13574407 -0.04177473 0.043785695 -0.005629747 -0.047918133 -0.027372155 0.03740505 -0.0065249116
0.028921712 -0.0075796433 -0.026323477 -0.016446117 0.021267213 0.09423459 0.056933973 -0.01297256
-0.022337811 0.017835673 0.019006923 0.020855999 0.040374964 -0.041433606 0.015769 -0.03248224
-0.018058326 0.04433833 0.012369735 -0.010672071 -0.022855984 -0.08604878 -0.011995191 0.014235659
-0.030058825 -0.010006528 0.012705052 -0.065834105 0.029763607 -0.028872833 -0.02579046 0.005502483
0.046273407 0.0041615386 -0.0019544458 -0.036586326 0.001581306 0.0146006625 -0.03994532 -0.047225438
0.068095855 -0.04783562 -0.023648782 -0.0017033727 0.051057633 0.07077517 -0.0340044 -0.03776857
0.03174552 0.025077851 0.01349765 -0.07358229 -0.025581058 -0.0074318266 0.10315944 -0.0009001395
0.026767364 0.011655979 0.02896634 -0.020722708 -0.0051474324 -0.030003212 -0.013965473 -0.06331614
-0.06463677 -0.06295255 0.009236105 0.005058995 0.004727792 0.00989794 0.07745504 0.030894266
0.029629432 -0.023042599 0.02939399 -0.011965452 0.045577936 -0.06304617 0.019793855 0.009040798
0.023466371 0.02467384 -0.11616237 0.033086237 -0.022766164 0.006711574 0.050618667 -0.026215876
0.022810072 -0.003150769 0.046799358 0.0519793 0.030053856 -0.012640818 0.012887123 -0.048382588
-0.05310979 -0.04942199 -0.029302495 -0.032919697 -0.070080616 -0.019938502 -0.03009372 0.08121074

bias f4 [23]
00000000: 5efd 1cbe f1a5 df3d cb55 e2bd 8cc7 a93a
00000010: b90a b53c 9c11 8ebe f705 06be 767d 7d3c
00000020: 0016 013e 439d c63d 672b 0b3e 1712 7f3d
00000030: b965 a23d 394b 94bd 5f88 31bd b39b 19be
00000040: ab70 1b3e d74f d63d de4c 853d 4f7d 403d
00000050: 31c8 1abe d9c1 9a3c db29 7ebd
-0.15331027 0.10920323 -0.1105152 0.0012953146 0.02209984 -0.2774781 -0.13088213 0.015471807
0.12606049 0.09697964 0.13590775 0.06227311 0.07929558 -0.0724091 -0.043342944 -0.15000801
0.15179698 0.10464447 0.06508802 0.046994504 -0.1511543 0.018891262 -0.062051635
